final_model.pth (torch, 764089 bytes, 46 tensors)

conv1.weight f4 [6, 3, 5, 5]
000000 f5 d2 b2 3c fe d2 3e 3d 59 d8 a6 bd 8c f2 c3 3c
       0.021829108 0.046587937 -0.08146734 0.023919366
000010 78 4a 66 bd 13 14 e0 ba d4 48 05 bd 83 51 42 3d
       -0.056223363 -0.0017095826 -0.032540157 0.047441017
000020 4d 56 48 3d fb 7c c9 bd 8e 36 07 3e 6c 66 80 3d
       0.048910428 -0.09838291 0.13204405 0.062695354
000030 10 c1 8c 3d 6c 0d 89 bc 31 22 aa 3c e8 04 23 3d
       0.06872761 -0.016730033 0.020768257 0.0397996
000040 1c 9d c4 3d f0 1f 43 bc f8 11 a3 bd 87 dc 32 bc
       0.09600279 -0.01190947 -0.07962412 -0.010916836
000050 00 da b8 bc 0f 6d b9 bc d3 44 9d bd 58 89 57 3d
       -0.022564888 -0.022635011 -0.07679143 0.052621216
000060 e0 26 ea bd fe 06 24 be 0c 31 ce bd 6d 9a f3 bd
       -0.11433196 -0.16018292 -0.10067949 -0.11894689
000070 aa b8 2a bd b4 bf cd bd 2b 84 f8 3b 44 77 d9 bd
       -0.041680016 -0.1004633 0.007584115 -0.10618451
000080 b2 26 51 3d 72 0b cd bc 7b 2f b6 bc 48 c3 3e 3d
       0.051062293 -0.025029872 -0.022239437 0.046572953
000090 8e 32 f8 3c 02 49 36 3d fb 38 d3 bc 28 22 73 bd
       0.030297544 0.04450322 -0.025784006 -0.059358746
0000a0 ee 5b 88 3d 10 db 29 bd 44 42 a2 3b 64 cd 9d 3d
       0.06658159 -0.04146868 0.004951747 0.07705191
0000b0 ac f1 14 3d db 93 07 bd 09 e5 24 3d cb 2e c2 bc
       0.03636329 -0.03309999 0.040257487 -0.023703953
0000c0 b2 67 16 3d f0 68 a3 bd 68 2e 0f be e0 98 c6 bc
       0.036719985 -0.079789996 -0.13982546 -0.024242818
0000d0 ab 0a 3b bd 26 01 02 3e 05 e6 d1 3d 24 6a 00 3d
       -0.04566447 0.1269575 0.10248951 0.031351224
0000e0 82 88 f5 3d 96 4a 95 3d e4 6d 10 3e 98 e9 8b bc
       0.119889274 0.07289617 0.1410442 -0.01707916
0000f0 86 c0 5f 3d 5b 92 01 3d 38 7f cd 3d 1d 86 80 3b
       0.054626964 0.031633716 0.10034031 0.0039222375
000100 32 fc 45 3d 3e cf a9 3d 2e 92 2e 3e 0b 05 de bc
       0.048336215 0.082914814 0.1704795 -0.027102014
000110 5a 72 13 bd e9 a6 92 bd 5c c3 29 3e db ce 8a 3d
       -0.035997726 -0.07160742 0.1657843 0.06777736
000120 4e 90 fc 3d 07 df 98 bd 84 8c d0 bd 3f f8 96 bc
       0.123322114 -0.07464414 -0.10183051 -0.01842892
000130 b0 35 af b9 61 02 01 3e e2 87 d9 3d 18 5d 13 3e
       -0.000334186 0.12598564 0.10621621 0.14390981
000140 b0 2a e5 bc 08 5b 49 bd 62 1c c6 3d d5 1f 86 bc
       -0.027974457 -0.04915908 0.09673382 -0.0163726
000150 2f d0 a7 3d ad df 2a bd ee 89 af 3c b1 49 1a be
       0.08194005 -0.04171722 0.021428075 -0.15067174
000160 db e8 f2 bd 93 7b 9c bc 07 9c 96 3c f7 44 8c bd
       -0.1186082 -0.019101894 0.018384947 -0.068490915
000170 12 fc 07 3c 26 99 22 3d 98 1a cc bd c0 11 db bc
       0.008299844 0.039696835 -0.0996601 -0.026741862
000180 fc 53 f3 3d f2 88 97 bc b1 19 6f 3c cf 81 20 bd
       0.11881253 -0.018497918 0.014593528 -0.039186295
000190 8b 0e 9c 3b 11 2d ec 3d 3a 4c a6 3d e7 1d 5f 3b
       0.004762476 0.11532033 0.08120008 0.0034044923
0001a0 eb e5 8b 3d 2f b7 29 bd ca d8 4f bd b4 88 dc b9
       0.06830963 -0.041434463 -0.050743856 -0.00042063522
0001b0 f4 56 1d bd 1e 32 10 bd 6a e5 d8 3d 1b b8 16 bc
       -0.038413003 -0.035204045 0.10590632 -0.009199168
0001c0 1b 94 bc bb ff 63 0e be 4f 46 d0 bd 66 bf 13 bd
       -0.0057549602 -0.13905333 -0.1016966 -0.036071204
0001d0 9a 99 66 bb 5c 3c 04 be a3 ab 38 bd b9 15 27 bd
       -0.0035186769 -0.1291365 -0.04508556 -0.0407922
0001e0 f5 6f 1d 3d e0 85 33 bc f5 a4 30 3d 89 b5 85 3c
       0.03843685 -0.010957211 0.043126065 0.016321914
0001f0 f3 7e e6 3c 2b a5 fb bc 83 04 5e 3b c7 e9 34 bd
       0.028136706 -0.030718407 0.00338772 -0.04416826
000200 72 01 04 3e bb e7 d1 bb 7f 53 e2 3d 9c 22 58 3d
       0.12891176 -0.0064057983 0.11051082 0.05276738
000210 e2 5f 8e bd ba 0a d5 3d 16 3f c4 bc 71 bc 7b bd
       -0.06951882 0.104024366 -0.023955863 -0.06145901
000220 60 12 01 be dd fd 1a be ca c1 4e 3b cc 61 42 bd
       -0.12604666 -0.15135904 0.0031548613 -0.047456548
000230 e0 e9 06 3d cc b6 fa bd b0 aa 44 3d b6 3b bd bd
       0.032937884 -0.12241897 0.048014343 -0.092399046
000240 ea 87 c2 bb 2e 47 0d 3d 7c b4 76 3d 3c b4 d9 3d
       -0.0059366124 0.03449171 0.060230717 0.1063008
000250 66 52 1d 3e 20 2c bf bc 27 c2 a3 3c cc 69 77 bd
       0.15363464 -0.02333647 0.01999004 -0.06040363
000260 75 00 11 3a 9c eb 93 bd e1 bf b4 3d c6 db 9e bd
       0.0005531379 -0.07222673 0.088256605 -0.07756762
000270 3b f2 81 3d dc f3 09 3d d1 95 38 3d f5 9d f8 bc
       0.0634503 0.033679828 0.04506475 -0.030348757
000280 40 ca 01 3e c4 65 17 3d bd 59 49 bc 1b 17 ef bd
       0.12674809 0.036962286 -0.012289462 -0.11674329
000290 ed 2f a6 3d e8 ec db 3b a9 3b 3b bd 77 5a af 3d
       0.0811461 0.006711591 -0.045711193 0.08562177
0002a0 bf 00 95 3c 86 28 55 bd b4 29 17 bd 47 aa af 3c
       0.018188832 -0.0520406 -0.036905006 0.0214435
0002b0 42 f3 bb 3d 1c 59 6b ba c7 81 04 bd 85 7f b5 bc
       0.09177257 -0.0008977817 -0.032350328 -0.022155533
0002c0 eb 00 9a bd ca 7a 76 3d 7f 9a ca 3d 33 81 f2 bd
       -0.07519706 0.060175695 0.09892749 -0.11841049
0002d0 e6 7f 3e 3d aa b4 a2 3d af 9e e6 3c f1 85 01 bd
       0.046508692 0.07944615 0.028151838 -0.031621877
0002e0 d1 bb af 3d 54 cb a1 3d be a6 7b 3d d7 1e 04 bd
       0.08580745 0.0790011 0.061438315 -0.032255974
0002f0 08 99 30 bd 69 00 21 3d d0 0e 29 bc bc f4 e8 bc
       -0.043114692 0.03930703 -0.010318473 -0.028437011
000300 64 cf 91 3d e4 fc c0 3d 46 78 a3 bb bd e0 75 bc
       0.07119635 0.09423235 -0.004988703 -0.015007195
000310 c3 74 dc 3c d8 e8 f5 3c e1 83 72 3d be 9d 82 3d
       0.026911145 0.030018255 0.0592078 0.06377743
000320 04 79 cd bd 90 f8 33 bd cc 57 ca 3d 59 2d 12 3d
       -0.100328475 -0.04393822 0.09880027 0.03568778
000330 30 77 0f bd 9e d2 90 bd 3b 69 87 bd 07 17 ea bd
       -0.035025775 -0.07071422 -0.06611868 -0.11430173
000340 dd 94 61 bd c7 93 0c 3d 97 2b 77 3d e2 65 36 3d
       -0.055073608 0.03432062 0.060344305 0.044530757
000350 a7 35 0b be 1c c7 e0 bd 38 3d ce bc 5b 6a a8 3d
       -0.13594685 -0.10975477 -0.025175676 0.08223411
000360 ef f8 2b bc bf 45 6c bd 54 ca 7a 3c 6c 60 8c bd
       -0.010496362 -0.057683703 0.015307028 -0.068543285
000370 ba e1 c9 bd 52 13 98 3d cc 49 3b bd d5 cb ae bc
       -0.09857507 0.0742556 -0.045724675 -0.021337429
000380 c4 60 e4 bd e2 57 9e 3c ef a7 95 3d 31 44 9c 3d
       -0.11151269 0.019329015 0.073074214 0.07630194
000390 7f 5e ec bc 0e 79 68 bd eb ee 06 be 6e b1 77 3d
       -0.028853653 -0.05675607 -0.13177077 0.060471945
0003a0 6d 61 8d 3d 44 25 ba 3d a8 75 8a 3d 05 e7 c0 3c
       0.06903348 0.09089139 0.067607224 0.023547659
0003b0 8c df c0 3b e2 f9 84 bd 92 2a bf bd 6d c2 85 bd
       0.005886024 -0.06492974 -0.093342915 -0.065312244
0003c0 0a f8 6a 3d b0 b9 65 bd 39 70 47 bd f3 1b 8f bd
       0.057365455 -0.05608529 -0.04869101 -0.06987753
0003d0 66 af 30 3d 99 7c bc bd 47 27 ca bd 3c 14 0f bc
       0.043136023 -0.092034526 -0.09870773 -0.008732852
0003e0 71 8d 22 bd 18 5a 02 3e 10 d4 e7 bd e8 38 ef bd
       -0.03968567 0.1272968 -0.113197446 -0.11680776
0003f0 71 d3 a6 bb 1e 40 43 bd c5 5c 58 bd 2f d9 00 be
       -0.0050911237 -0.04766857 -0.052822847 -0.12582849

conv1.bias f4 [6]
000000 2f ba 8f bc 28 be 85 bd bd 60 43 bd f2 c9 d5 3b
       -0.017544834 -0.0653041 -0.04769968 0.006524318
000010 22 ba 0e 3c 9e 5f c9 3c
       0.00871137 0.024581727

bn1.weight f4 [6]
000000 77 8f 6a 3f 0c 37 7e 3f 08 74 6d 3f 78 51 78 3f
       0.9162516 0.99302745 0.92755175 0.9699931
000010 f3 f3 84 3f e3 79 82 3f
       1.0386947 1.0193447

bn1.bias f4 [6]
000000 b3 f1 0b bd f9 67 3b bd 84 ee a6 3e b3 b1 e9 3d
       -0.03416605 -0.045753453 0.32603848 0.114108466
000010 dd f6 8a 3d c6 4a 52 3e
       0.06785367 0.20536336

bn1.running_mean f4 [6]
000000 11 92 57 bd 71 5d 77 bd 73 30 1a bd e7 71 e2 3c
       -0.052629534 -0.060391847 -0.03764386 0.027642203
000010 bd 29 e9 3c af 91 67 3c
       0.028462285 0.014133855

bn1.running_var f4 [6]
000000 cb a8 ed 3e 88 c9 54 3e 76 e0 07 3e a3 93 61 3e
       0.4641784 0.20780003 0.13269219 0.22028975
000010 e2 09 97 3e df 4d b1 3d
       0.29499727 0.08657431

conv2.weight f4 [16, 6, 5, 5]
000000 ef a4 8d bc 16 7c 59 3d 6d 7f b9 bc 9f b8 b7 bd
       -0.01729056 0.053096853 -0.02264377 -0.089707606
000010 7d 4d 26 bd 26 b6 95 3d f1 c4 4d 3d 66 f6 9b bd
       -0.040601242 0.07310133 0.050236646 -0.07615356
000020 85 8e 70 bc e8 fc c3 bd 2c e1 84 bc dd b2 7b bc
       -0.014682417 -0.095697224 -0.016220652 -0.015362469
000030 44 d8 8b 3d 52 45 30 3d e4 eb 13 3d a8 52 93 3d
       0.06828359 0.04303486 0.036113635 0.071935
000040 72 d2 90 3d 94 7d 66 3b 87 77 44 bd 81 9c 10 3d
       0.07071389 0.0035170065 -0.047965553 0.035305504
000050 49 e4 26 bd 64 7b 46 bd c4 db 84 bc 11 25 95 3c
       -0.040745053 -0.04845752 -0.016218074 0.018206151
000060 f7 ff 24 3d 6f 68 5a 3d 21 6a 53 3c 29 3b 05 3d
       0.04028317 0.053322252 0.012903721 0.032527123
000070 91 2c 6a 3b f0 41 fd 3c 66 e8 4e 3d e8 11 ff bc
       0.003573213 0.03091523 0.0505146 -0.031136468
000080 f5 fa 1a 3d 3c ca 51 3d 91 27 59 3d 5e 14 4a 3d
       0.037836988 0.051218256 0.05301625 0.04933583
000090 a4 1b 66 3d 5d 53 0b 3d b8 d7 f7 3c 50 08 4b 3d
       0.056178704 0.03401505 0.03025423 0.049568474
0000a0 ee 57 52 3d 92 b1 86 3d 42 e4 f2 bb 0f d0 88 bc
       0.051353388 0.065768376 -0.0074124644 -0.016700773
0000b0 5b 11 fb 3c 3c 4a a7 3a 86 c2 74 3c 2d 69 82 3d
       0.030647924 0.0012763212 0.014938956 0.06367717
0000c0 10 9d 80 3d bd 1d 04 3d a9 a7 b0 bd b8 21 89 bd
       0.06279957 0.032254923 -0.08625729 -0.066958845
0000d0 77 2f 2d bd 3c dd e9 bc 02 63 3a bd e2 cc fb bc
       -0.042281594 -0.028547876 -0.045504577 -0.030737344
0000e0 b9 82 48 3c 6a 12 28 bd cf 4b 58 bd 9d 50 76 bd
       0.012238198 -0.041033186 -0.05280667 -0.060135473
0000f0 59 01 c6 3d 14 9b 82 bc 33 3f 92 3d fd d6 82 3c
       0.09668226 -0.015943088 0.071409605 0.015971655
000100 e1 27 cb 3b 3f 42 aa 3d a8 c4 98 3c c9 0f 04 3e
       0.0061998223 0.08313417 0.01864846 0.12896647
000110 bc 43 ab 3d 14 09 69 3c 4a 81 52 3d 76 75 b6 3c
       0.08362529 0.014223356 0.05139283 0.022272807
000120 d4 d1 7d 3d 1c 58 5b 3d 43 01 42 3d 24 d6 06 bd
       0.061967686 0.053550825 0.047364485 -0.032919064
000130 45 58 cf bb ef 53 9a 3d b7 c7 92 3d 1b 85 27 3d
       -0.006327661 0.0753554 0.07166999 0.040898424
000140 a9 ea 9b bd 7c b5 88 b9 25 0d d9 bc 19 42 92 3d
       -0.07613117 -0.00026075158 -0.026495526 0.071415134
000150 f3 b8 fb 3c 7b 92 dc bc 40 96 28 bd 22 32 0f bc
       0.03072784 -0.026925316 -0.041158915 -0.00873998
000160 4e 2f 9c 3d a5 59 38 3d a4 32 be 3b 30 af ec 3b
       0.0762621 0.045007367 0.0058043767 0.0072230324
000170 ca 55 d8 3c 4c 3d a1 bc d9 4b 71 bc ae 51 bd bc
       0.026408095 -0.019682549 -0.014727556 -0.023110237
000180 1a 1b 90 bd 50 2b b0 bc 71 d9 bd bc 42 e7 82 bd
       -0.07036419 -0.021505028 -0.023174973 -0.06391765
000190 7e fe f2 3b 3b 4c 9c 3c 10 a9 af 3d 6e 25 ce 3d
       0.0074155917 0.019079318 0.08577168 0.10065733
0001a0 b7 73 9e 3d 7a 8a d5 3c f0 e0 6f bd 6d 48 ae bd
       0.077369146 0.026067007 -0.058564126 -0.08509908
0001b0 a9 78 ac bd dc ba 30 bd fc 34 e9 bd 96 43 e5 bd
       -0.084214516 -0.043146953 -0.11387059 -0.111945316
0001c0 b7 da d6 bd 7c e7 da bd f1 fd 04 bd 5d 87 c1 bd
       -0.10490935 -0.106886834 -0.03246874 -0.094496466
0001d0 ac 9b 16 be 8a 8c 10 bc 1a df a2 3c dc 85 a5 bc
       -0.14707822 -0.00882257 0.019881774 -0.02020543
0001e0 bc 8a fc bc 9d ff 36 bd 25 be 99 bd 76 ee 67 bd
       -0.030827872 -0.044677366 -0.0750697 -0.0566239
0001f0 42 e6 7d 3c 47 85 01 bc 17 17 f5 3c ae e5 8d 3d
       0.015496792 -0.007905311 0.029918237 0.069285735
000200 af bb 88 3c 4e d2 f5 bb f8 7b ee bc a1 9c ab bb
       0.016691057 -0.007501877 -0.029111847 -0.0052371775
000210 6c e8 ac bb cd c2 2d 3c a6 ad 87 bb 01 cf aa bc
       -0.0052767303 0.010605526 -0.0041405736 -0.02085066
000220 11 1d 06 be e7 11 95 bd 7c 05 ad bd da 1c c8 bd
       -0.13097025 -0.07278805 -0.08448312 -0.09771128
000230 66 7a bc bd 21 a1 d4 bd ae 66 b9 bc 5c f9 c1 bc
       -0.09203033 -0.103822954 -0.02263197 -0.023678474
000240 2f c0 04 bd c3 24 2a 3c 0c ae 95 bd 74 08 8b bd
       -0.032409843 0.010384741 -0.073085874 -0.06788722
000250 4c 72 0d bc 13 4c 27 3b b2 14 95 3c d0 37 41 3d
       -0.0086332075 0.0025527522 0.018198345 0.047172368
000260 28 df b1 3d bd 4d d2 3d fa 8c c1 3d 10 46 bc bc
       0.08685142 0.10268734 0.09450717 -0.022982627
000270 35 e1 fa bc 17 ec 06 3d f9 02 fd b9 90 60 40 bb
       -0.030624965 0.032939997 -0.00048258135 -0.002935443
000280 8e 0c 00 bd 19 e3 85 bd 59 30 bc bd e5 52 00 3c
       -0.031261973 -0.06537456 -0.09188909 0.007832264
000290 de 00 9f bd 11 7b d8 bc ec f6 9e bd b6 b7 e2 bd
       -0.07763837 -0.02642587 -0.0776194 -0.11070196
0002a0 e2 d2 86 bd 5c 3a f4 bd de ce 8b 3c ce 88 69 3d
       -0.065831915 -0.11925194 0.017066415 0.057015233
0002b0 bd f9 55 bd 9f 26 8a 3c 49 b9 c2 bd ed 5e 19 bd
       -0.052240122 0.01686412 -0.095079966 -0.037444044
0002c0 02 e1 9d 3c d0 60 18 3d 5d 1c 5b 3c d3 18 a8 bb
       0.019272331 0.037201703 0.013373462 -0.0051299124
0002d0 1c 7a 98 bd 5c 0e c9 3c f9 d4 9f bd a9 e7 85 bc
       -0.074451655 0.02454298 -0.07804293 -0.016345816
0002e0 97 76 cd 3c 94 a3 cd bd da bc 83 3d 6a 98 aa bc
       0.025080962 -0.10040966 0.06432505 -0.02082463
0002f0 a0 47 9d bd f7 d7 0e 3d c5 99 57 bd 8a f5 f1 bc
       -0.07679677 0.03487393 -0.05263688 -0.029536027
000300 51 e5 3f 3b 58 77 46 bd 4a bd a4 3d d1 5b 8f bd
       0.002928097 -0.04845366 0.080439165 -0.069999345
000310 43 15 37 3d aa 60 01 3d f4 64 e2 3c ea 04 8a 3d
       0.04469801 0.031586327 0.027636029 0.067392185
000320 85 44 53 bc 4c 46 0e bd ac 28 b0 bb 34 df 8e 3d
       -0.012894754 -0.03473501 -0.005375942 0.06976166
000330 64 36 cb bc db 41 48 bb 71 78 85 bd 4d c5 23 3b
       -0.024806209 -0.003055683 -0.06517113 0.0024989427
000340 a2 ce 91 bb fc 38 02 bd 97 a4 25 bd 67 af 21 bd
       -0.0044496814 -0.031792626 -0.04044017 -0.039473917
000350 22 a4 f4 bc 09 02 bf bd 9b 8c 31 bd 11 10 4a bc
       -0.02986342 -0.0932656 -0.043346982 -0.012332932
000360 0d b3 33 3d 7a 7f 4c 3b 9b ce d7 bd 58 cf aa 3c
       0.043871928 0.0031203912 -0.10537454 0.020850822
000370 6c 2a 25 3c 0b 65 36 bc 3a 33 e6 bc b9 a0 16 bc
       0.010080915 -0.011132489 -0.028100599 -0.009193593
000380 81 9d 7a 3d f8 d3 fa 3b 8d 72 73 bd dd 60 a1 bc
       0.061185364 0.007654663 -0.059435416 -0.019699508
000390 d0 cb 98 bd d5 20 9f 3c 42 0b 05 bd d9 7e f4 bc
       -0.07460749 0.019424835 -0.03248144 -0.029845642
0003a0 ba 3d 20 bd 63 31 6a bd 9e 8b 15 3d 06 1a 85 3d
       -0.039121367 -0.057176005 0.036510102 0.06499104
0003b0 62 61 21 3a 43 dd ca 3d 8a 4e 4e 3c 7e e0 55 3d
       0.0006156174 0.099054836 0.012591967 0.052216046
0003c0 e1 4e 4f 3d c9 80 4f 3d 78 a5 15 bd b6 63 c8 3d
       0.050612334 0.05065993 -0.036534756 0.09784643
0003d0 aa dc d3 3c f0 7d b7 bd 39 71 86 bd 47 fe 16 be
       0.025862057 -0.089595675 -0.06564564 -0.14745437
0003e0 0b bd 35 3d 19 db 86 bd 44 69 78 3d 31 f7 7f 3c
       0.04436974 -0.06584758 0.060647264 0.0156229
0003f0 60 f2 51 bd 1b 10 66 bc d2 53 44 bd 00 63 1e 3d
       -0.051256537 -0.014041926 -0.0479315 0.038668633

conv2.bias f4 [16]
000000 71 cb a9 bb 52 1d 86 bd 2d 27 1e bd 02 94 25 bb
       -0.005181723 -0.06548561 -0.03861158 -0.0025265221
000010 7f e1 35 bd 80 9c 84 bd e0 07 ae 3d 49 55 17 3c
       -0.044404503 -0.064751625 0.08497596 0.009236642
000020 48 7d 0a be 1b b3 a8 3c ba bb ee 3c 6c 12 58 bd
       -0.13524354 0.020593217 0.02914225 -0.052751943
000030 29 c0 f4 3c 30 f4 63 bd d4 fa 8a 3c f3 f1 39 3d
       0.029876785 -0.055652797 0.016965307 0.045396756

bn2.weight f4 [16]
000000 c8 66 85 3f aa dc 85 3f be fc 7e 3f ab 7d 85 3f
       1.0421991 1.0457966 0.99604404 1.0428976
000010 f3 04 8a 3f 53 ea 85 3f fe 2e 82 3f e5 c2 83 3f
       1.078276 1.0462135 1.0170591 1.0293852
000020 2a 7f 80 3f c6 82 88 3f ed 46 82 3f fe 18 88 3f
       1.0038807 1.0664909 1.0177895 1.0632627
000030 fa 61 83 3f 48 79 84 3f 58 3f 8a 3f cd a3 87 3f
       1.0264275 1.0349512 1.0800581 1.0596863

bn2.bias f4 [16]
000000 62 72 a6 bd 0a 89 bf bc 97 6f 2f bc 9e ae b7 bd
       -0.081272855 -0.023380775 -0.010707757 -0.089688525
000010 e3 02 4c bc 5f a3 17 bd b5 1e a8 bd 43 1d 6e bd
       -0.01245186 -0.037021037 -0.08208982 -0.058133375
000020 70 51 01 3d 21 87 e5 bb 45 56 80 bd 3a 8f f9 bc
       0.031571805 -0.007004634 -0.062664546 -0.030463804
000030 b3 2e 7b bd e2 6d 27 bd ba b0 73 bd 64 d8 84 bd
       -0.061323833 -0.040876277 -0.05949471 -0.06486586

bn2.running_mean f4 [16]
000000 5b 54 04 bf 59 ef 03 bf 3d d0 8f bd 3c 1f 14 bf
       -0.51691216 -0.5153709 -0.0702214 -0.5786016
000010 7b 2d 9e be 2c 72 cf 3d 2e f8 68 bf 6c 3a 1e 3e
       -0.30894074 0.101291984 -0.9100369 0.15451974
000020 4a fa f0 be ec 70 9f be fb 32 0a bf f3 fe 81 bd
       -0.47065955 -0.3114084 -0.5398404 -0.06347456
000030 29 e4 f1 bf ab 86 ca 3d 6a 8e 2d bf 9d 69 0e 3f
       -1.8897754 0.09888967 -0.6779543 0.55629903

bn2.running_var f4 [16]
000000 32 c1 de 3e ef d9 5f 3e 85 20 a8 3e 59 e7 f6 3e
       0.4350677 0.21860479 0.3283731 0.4822338
000010 f7 ab 99 3e cb c7 f6 3e ef c1 f1 3e 64 3f c2 3e
       0.3001401 0.48199305 0.47218272 0.37938988
000020 06 9f 92 3e f1 2e 4f 3e 90 66 9b 3e d7 25 12 3f
       0.2863695 0.2023275 0.30351686 0.5708899
000030 53 88 77 3f dc 79 d7 3e 52 a3 2a 3f 08 88 b8 3e
       0.9669239 0.4208516 0.6665546 0.36041284

fc1.weight f4 [120, 400]
000000 d5 41 04 3d 88 d8 a9 bc cf 3f 8d bd 91 26 eb bc
       0.032289345 -0.020733133 -0.06896936 -0.028704913
000010 12 df bc 3c cb a0 43 3c 29 22 9a bc 5f 62 b7 bc
       0.023055587 0.0119401915 -0.018815117 -0.022385774
000020 88 a2 63 bd 86 e4 53 bd a6 07 ef bc 2d 8f 0d bd
       -0.055574924 -0.05173161 -0.029178452 -0.03456037
000030 6b 1f a1 bb 3a 1a 29 3d 12 93 b2 bb a4 f7 94 bc
       -0.0049170754 0.041284777 -0.005449661 -0.01818449
000040 07 e0 9d bc a8 61 20 3d 14 d8 bb 3c 8b fa b3 bb
       -0.019271864 0.039155632 0.022930183 -0.0054925135
000050 73 e1 cf bb 8c 72 8d bc c2 87 4d 3c fa 15 84 3c
       -0.0063440143 -0.017266534 0.012544574 0.01612376
000060 5a 9a 86 3d fb f3 c8 3c 9c f2 3e 3d 99 cd c7 bb
       0.06572409 0.024530401 0.04661809 -0.006097507
000070 b2 7a 8a bc 52 14 76 3c 3b 13 ae bc 43 e6 2b 3d
       -0.016904209 0.015019493 -0.021249404 0.04196764
000080 0c 53 93 bc 6d 34 22 bd 68 e9 86 bd 49 91 a8 3c
       -0.017983936 -0.03960078 -0.065874875 0.02057709
000090 f7 75 6d 3d ba 99 67 3d 3f 12 e4 bc f0 46 20 bc
       0.05797383 0.05654309 -0.027840732 -0.009782538
0000a0 38 f4 7c bd 87 1b 86 bd 9c cb 5a bd 62 88 6f bb
       -0.061756343 -0.06548219 -0.053416833 -0.0036549796
0000b0 76 d6 46 bd 6d f8 a5 bc 2b 83 bf bc 20 70 1a bc
       -0.04854437 -0.02026006 -0.023377975 -0.009426147
0000c0 7b 9b 05 3c da f4 9f 3c df 18 a6 bc 09 ab ec b9
       0.008154745 0.019525934 -0.020275531 -0.0004514086
0000d0 f7 c2 c3 bc f7 42 53 3a 15 d5 d0 bc 11 5a 8a 3c
       -0.023896677 0.000805899 -0.02549223 0.01688865
0000e0 e1 f7 7c 3d 31 8c ab 3d 40 ef e7 3c f7 46 98 bb
       0.061759833 0.08376349 0.028312325 -0.0046471315
0000f0 6e 0f 85 bd fd ba 19 3d e7 e5 39 bc c6 32 1f bc
       -0.064970836 0.03753184 -0.011346317 -0.009716695
000100 bc af 8f 3c 0c 00 b5 bc d3 d8 af bc 3c bb 69 bd
       0.017539851 -0.022094749 -0.021465695 -0.057063326
000110 25 3a 96 bd f6 9d f2 39 8d e0 93 bd 72 6f 49 3c
       -0.07335309 0.00046275527 -0.07220564 0.012294637
000120 9b 79 1e bc 6d 82 2b bd a5 27 86 bd 77 d7 56 3d
       -0.009672548 -0.04187243 -0.0655053 0.052451577
000130 a1 03 d5 3c 61 7e 4f 3d d9 6a 6b 3d 1a 83 a7 3c
       0.026002707 0.050657634 0.057474945 0.020448256
000140 74 85 cb 3c 1a 8d 8a 3c 96 de 29 bd 00 7b dc 3c
       0.024843909 0.016912986 -0.04147204 0.02691412
000150 cd a6 b2 bb d9 11 06 bd 9b 2f 02 bd 3d c1 14 bd
       -0.005452013 -0.032731865 -0.03178368 -0.0363171
000160 c8 4a 85 bc ef eb 24 bb 5c 69 b5 3c 5b a8 92 3a
       -0.01627101 -0.0025165041 0.022144966 0.001118909
000170 d0 ad 8e bd ef b8 80 bd a2 db c6 bb 08 a8 b0 bb
       -0.06966746 -0.06285273 -0.0060686627 -0.0053911246
000180 d8 24 bd bc ae 07 88 bc 12 be 6e 3c 25 2c 95 bd
       -0.023088858 -0.016605224 0.0145716835 -0.072838105
000190 27 47 75 3b 43 c8 60 3c 83 28 a4 3b 91 9a e0 bb
       0.0037426443 0.013719621 0.005009712 -0.0068543633
0001a0 ac bd b4 bc e4 39 b8 bc cd 40 7b 3d 74 5b 4e 3d
       -0.022063099 -0.022488542 0.061341096 0.050380185
0001b0 cf e4 63 3c f2 fa 27 bb 26 11 89 3c 1c 20 34 3d
       0.013909533 -0.0025631753 0.01673181 0.043975934
0001c0 20 39 41 3c 05 a3 95 3c d7 73 69 bc b5 6e 51 bd
       0.011793405 0.01826621 -0.01424881 -0.05113097
0001d0 75 56 54 bc 93 50 7a bd bd 0d 7c bd 1b 86 88 bc
       -0.012960066 -0.061111998 -0.06153654 -0.016665509
0001e0 7e 65 ba bc e4 44 5e bd 60 41 6a bc 60 c9 56 bd
       -0.022753473 -0.054264918 -0.014297813 -0.05243814
0001f0 7c 83 86 bd c7 dd f5 3c d4 0d 0f bd 56 0b e6 3c
       -0.065680474 0.030012978 -0.034925297 0.028081577
000200 9b f3 59 3d fa d7 23 3d 5c 14 58 3d 77 9a 53 3b
       0.053210836 0.040000893 0.05275379 0.0032288113
000210 b9 78 18 3d 1d 72 12 3c 73 7c ab 3c fe ec 8b 3d
       0.037224505 0.00893834 0.020933365 0.06832312
000220 23 f7 af 3c c9 87 02 bd ed 44 ab bc df 0f 51 3d
       0.021480149 -0.031867776 -0.02090689 0.051040526
000230 ab 02 b6 3c ea 92 8f 3d 38 bd a8 3c ff 64 b4 bc
       0.022218069 0.070104435 0.020598039 -0.022020815
000240 a7 2b 0e 3d 1b 30 34 3d 54 7c 2f 3d 25 8b db 3c
       0.0347096 0.04399119 0.042843178 0.026799748
000250 f6 f7 81 bd 37 9d c5 bc 8d c9 70 3d 3c b4 89 3c
       -0.06346123 -0.024122817 0.058785964 0.016809575
000260 d9 71 36 3d f7 ed eb 3c 85 a5 28 3d 71 f7 c3 3c
       0.044542167 0.028799994 0.041173477 0.0239217
000270 da 85 d2 bc e5 3a 95 bc 1d 3f d9 3c d4 6c 22 bb
       -0.025698591 -0.01821656 0.026519353 -0.0024784105
000280 b9 06 24 3c ab e5 24 bd 04 97 82 3c d8 8a 48 3b
       0.010011368 -0.04025809 0.01594115 0.0030600335
000290 d4 09 51 bc af 40 08 bd dd 63 23 bd b0 8d 43 bd
       -0.012758691 -0.033264812 -0.03989016 -0.047742546
0002a0 f3 d0 a0 bc 19 0e 2f 3d 74 47 7a bd c7 80 a6 3c
       -0.019630885 0.042738054 -0.0611033 0.020325078
0002b0 a1 51 65 bd fb 37 1c 3d f0 8e ae 3d 3c a5 68 3d
       -0.05598605 0.038139325 0.08523357 0.056798205
0002c0 3a 57 67 3c ac e4 7a bc 5e e3 70 3d 59 70 a4 3d
       0.0141199175 -0.015313309 0.058810584 0.08029241
0002d0 5e 4e 7b 3d f1 bb 55 3c cf d6 80 3b 86 3e 20 3d
       0.061354034 0.013045297 0.003931857 0.039122127
0002e0 48 35 0e 3c 79 19 aa bc 39 31 44 bd dc 4a a2 3c
       0.008679695 -0.0207641 -0.047898505 0.019811086
0002f0 6d 18 dd bb 9e 6c 0d 3d 20 23 cf bb 36 85 9b 3c
       -0.0067472965 0.034527414 -0.006321326 0.018984418
000300 35 9f a5 bc 22 c9 08 bd 83 c5 bb 3c c0 1d 40 bd
       -0.020217517 -0.03339494 0.02292133 -0.04690337
000310 ef 6c 0f 3d a6 28 3f 3c 0c 59 1c bd 30 54 55 3d
       0.035015997 0.011667406 -0.03817086 0.05208224
000320 53 6a 1c bd 1f a7 37 bc 8a 74 37 bd 54 dc d3 bd
       -0.038187336 -0.011209278 -0.044788875 -0.10344759
000330 2c 81 1e bd 8b f9 14 3d 8d 85 95 bb 33 49 01 bd
       -0.038697407 0.036370795 -0.0045630396 -0.03156395
000340 d8 83 7a bc da b4 97 bc 62 6c df bc fa 24 34 bd
       -0.015290223 -0.018518854 -0.02727336 -0.043980576
000350 79 78 42 bd 72 6c fa bb 33 72 df 3c 0e 03 1c 3d
       -0.047478173 -0.007642322 0.027276134 0.03808885
000360 ed 27 a6 bc a3 a0 0b bc ad 95 d8 39 86 f9 ea bc
       -0.02028271 -0.0085221855 0.00041310248 -0.028683435
000370 dd be 0c 3c 32 d6 59 3d 4c 14 0d 3d f9 d4 93 3c
       0.008590427 0.05318279 0.034443185 0.01804589
000380 f1 fb c2 bc 18 9d cb 3c 13 39 fb bc ee 60 60 bb
       -0.023801776 0.024855182 -0.030666864 -0.0034237462
000390 39 f6 e1 bc 7c 48 0c bd d1 90 16 bd 95 63 de bc
       -0.027583228 -0.034248814 -0.0367592 -0.027147094
0003a0 c1 51 88 bc 26 c5 66 3b 98 8f 1e bd 0b 01 74 3b
       -0.016640546 0.0035212724 -0.03871116 0.0037232067
0003b0 c6 11 15 bd ee 14 30 bd 94 2c fd bc 2c 6c 75 bc
       -0.036393903 -0.04298871 -0.030905046 -0.0149794035
0003c0 94 b7 29 bd 95 48 d3 bb 53 6a 09 bd aa 1a d2 bb
       -0.04143484 -0.0064478614 -0.033548664 -0.00641187
0003d0 e2 f6 3b bd 3b a0 27 bc e7 21 2f bd 44 f5 4d bd
       -0.045889743 -0.010231073 -0.04275694 -0.05028273
0003e0 25 35 0c bc 11 4c 73 3c 47 33 3f 3d 90 28 69 3c
       -0.0085575925 0.014849679 0.04667976 0.014230862
0003f0 a6 7f 1d 3d a5 9e 33 3b ec aa e4 3c ea 2f 81 bc
       0.038451813 0.0027407792 0.027913533 -0.015769918

fc1.bias f4 [120]
000000 6d 7c 91 bb 88 b5 d7 bb 1e 8b 09 3d 65 99 e2 3c
       -0.0044398815 -0.0065829195 0.033579938 0.027661035
000010 64 88 01 3c b9 ba 32 3d 70 f6 eb 3c ef fd 5d 3c
       0.007906053 0.043635104 0.028804034 0.013549312
000020 25 45 a2 3c 12 f3 4c 3d 30 14 14 bd 76 12 46 bd
       0.019808361 0.050036497 -0.036152065 -0.04835745
000030 bf 03 bd 3c c0 fb 20 bd f0 98 bb 3d 43 9d 41 3d
       0.023073075 -0.039302588 0.0916003 0.047269117
000040 3f a7 04 3d 2e b4 3b 3d 40 12 8e 3d ab 7e 19 bd
       0.03238606 0.04582613 0.06937075 -0.037474316
000050 6d 0e 62 bc ec 87 87 3d 48 5e aa bc 3e 87 fe 3c
       -0.013797385 0.06617722 -0.02079691 0.031070348
000060 bf 30 87 bc b6 e1 56 3c 85 2f fd bc 58 92 1d bd
       -0.016502736 0.013115337 -0.030906448 -0.038469642
000070 57 f5 cd 3c c4 b9 20 bc f2 b1 a6 3a 03 20 08 bd
       0.025141401 -0.009809915 0.0012717827 -0.033233654
000080 7f 4e 4d 3b c0 c0 e4 3c 2f ce 57 bd 83 99 27 3c
       0.0031327305 0.027923942 -0.052686866 0.010229471
000090 88 e1 a7 3d 44 e2 dd bb c6 ea 43 bd 6b 29 21 bd
       0.081973135 -0.0067713577 -0.04783132 -0.03934614
0000a0 98 8e 21 bc 4e 4c 21 bd e2 0e 21 bc 34 ab 1a 3d
       -0.009860657 -0.03937941 -0.0098302085 0.03776093
0000b0 e5 a4 bc 3b 17 f0 51 3d 9c 64 ce bc 09 6a 60 bd
       0.0057569616 0.05125436 -0.025194459 -0.054788623
0000c0 73 d0 fb bb c1 88 1a 3d 74 32 b9 3b 81 8c c5 3c
       -0.007684761 0.037728075 0.0056517664 0.024114849
0000d0 f6 fa 19 3d d8 f1 c3 bc 15 c5 1c bd b3 14 ce 3c
       0.03759285 -0.023919031 -0.03827389 0.025156355
0000e0 97 79 81 bc 97 d4 fa ba 01 52 c4 bc 4c 3f 7f bc
       -0.015805049 -0.0019136843 -0.023964884 -0.015579056
0000f0 86 7a f3 3b 45 83 22 3d 6b 45 65 3b 7c 97 78 38
       0.0074303774 0.03967597 0.0034984003 5.926889e-05
000100 c3 23 76 bd 4e d2 37 3d 98 97 14 bd 9d d8 52 bc
       -0.0600927 0.044878297 -0.036277384 -0.012869027
000110 c4 1d 04 3d e9 6e ae 3c 66 a8 2d 3d f1 d3 f8 3c
       0.03225495 0.02129312 0.042396925 0.030374499
000120 fe 4a f5 39 51 4b 92 3d 15 38 8b 37 bd a9 09 3d
       0.00046785915 0.07143272 1.6596206e-05 0.03360914
000130 13 99 06 3d d2 1d 55 3c 65 0b 05 3d 41 ed b0 3b
       0.032860827 0.013007598 0.03248157 0.0053993766
000140 ab a1 86 3d d2 ea 77 bd 57 fd 6f bd 55 cb a4 3b
       0.065738045 -0.060526676 -0.058591213 0.005029122
000150 59 ce be bb 45 bd 97 bc 3e 4a eb 3c e7 a9 42 3d
       -0.0058229384 -0.018522868 0.028721925 0.047525313
000160 a8 4e cc 3b bc ff 87 bb 67 41 81 3d b9 9b 0f 3d
       0.0062349625 -0.004150359 0.06311303 0.035060618
000170 ad 90 91 3c 02 b7 d0 3c 89 38 d6 bc f6 09 fe bc
       0.017769182 0.02547789 -0.026150005 -0.03101061
000180 fb 68 c2 3c f2 eb e7 bb ef a8 0b bd 92 16 51 bb
       0.0237317 -0.0070776874 -0.034096655 -0.0031904322
000190 3d f1 d8 3b b8 e5 61 bc fb 4e cf 3c 88 c0 17 3d
       0.0066205547 -0.013787679 0.025306216 0.037048846
0001a0 f1 ea 40 bd 49 0e 01 3d 66 78 d2 bc e9 51 48 bd
       -0.047099058 0.031507764 -0.025692176 -0.04890624
0001b0 e9 d2 37 3d b0 cf 39 3d bf 9c 2b 3d 14 3b e5 3c
       0.044878874 0.04536408 0.04189753 0.027982272
0001c0 10 d1 ea bc 28 86 f0 3c 34 19 bc 3c 2f 91 bb bc
       -0.028664142 0.029360846 0.022961237 -0.022896377
0001d0 36 7f 6a 3d 4f 48 80 bd c0 73 8d 3b 63 3f d2 bc
       0.057250224 -0.06263792 0.004316777 -0.02566499

fc2.weight f4 [84, 120]
000000 8a 8e 80 3d 60 d4 e0 3d 85 d5 0c 3d 92 1a 2f bd
       0.06277187 0.10978007 0.034383316 -0.04274995
000010 df 42 08 3e cc e2 80 bd 19 b7 7a bd df 86 e8 bd
       0.1330676 -0.06293258 -0.06120977 -0.113538496
000020 2b cb d0 3c 5a bc 9a 3c 79 b3 18 3d 92 70 99 bd
       0.025487503 0.018888641 0.037280533 -0.07492174
000030 29 1d 38 bd 2f 93 d0 3c 20 52 72 bd d4 fd 0b be
       -0.044949684 0.025460808 -0.05916035 -0.13671046
000040 de 2b 8d 3d ef cf c0 3c b0 70 a0 bd ed 2b 29 bd
       0.068931326 0.02353665 -0.078339934 -0.041301657
000050 78 35 f7 3c 1a e5 07 bd f2 02 a0 bb 23 b4 c2 3d
       0.030176863 -0.033177473 -0.0048831636 0.095070146
000060 1d 7d 37 3d b9 1e 5c 3d 5b 0c 67 3c 9e d2 b6 3c
       0.04479705 0.053740237 0.014102067 0.022317227
000070 a9 a4 39 bd 68 63 6b 3d ec 75 cf 3d 76 83 26 3d
       -0.045323048 0.057467848 0.10129914 0.040652715
000080 5e 1f a2 3d 11 93 8d 3d 78 f8 42 3d 31 8c 0b bd
       0.07916139 0.06912816 0.04760024 -0.034069244
000090 c4 5e ea bb c6 87 b9 3d d9 79 01 3d 5c dc 06 3e
       -0.00715241 0.090591 0.031610344 0.13169998
0000a0 b4 d2 b8 bd a4 65 9c bd 74 a4 b7 3d 09 41 65 bd
       -0.090245634 -0.07636574 0.08966914 -0.055970225
0000b0 2f 54 0d 3e 87 88 10 bd 94 d9 5c bd 67 92 a9 ba
       0.13801645 -0.035286453 -0.053918436 -0.0012937308
0000c0 b4 cc 81 3d 01 10 36 bd 1e 44 80 3d 90 45 54 3d
       0.06337872 -0.044448856 0.06262992 0.051824152
0000d0 e2 13 96 3d 4c f6 23 3d 46 44 b2 3c 11 1f b8 bc
       0.07328011 0.04002981 0.021761071 -0.022475751
0000e0 12 d9 ea bc ed ed cf bd db 81 e8 3c 6e e8 2b 3d
       -0.02866796 -0.101528026 0.028382232 0.04196971
0000f0 af 21 6c 3d 1f 84 13 3d 22 1d 3c bd fe 85 03 3d
       0.05764931 0.036014672 -0.04592622 0.032110207
000100 e9 9e a9 bd 64 bb df bd 23 11 93 bd 79 66 23 bc
       -0.08282263 -0.10924414 -0.07181003 -0.009973162
000110 c6 71 ee 3c c0 56 6c bc 36 ca 08 bd e8 e2 b0 bc
       0.029106986 -0.01442498 -0.03339597 -0.021592572
000120 14 3a 9c bd 7a 81 7c bd b1 06 cd bd b8 53 7d 3c
       -0.07628265 -0.061646916 -0.10011042 0.015461855
000130 f9 51 ae bc 42 26 0c bd a3 50 87 3d 8f 04 c8 3d
       -0.021279322 -0.034216173 0.06607177 0.097664945
000140 3f 47 58 bd 68 a0 d1 3d e2 dc 93 bd 5d 48 72 bd
       -0.05280232 0.10235673 -0.072198644 -0.059151042
000150 46 be 22 bc ad 83 b3 ba 54 08 1f 3d 32 22 93 bc
       -0.00993306 -0.0013695859 0.0388263 -0.017960642
000160 1b e2 15 3e 15 3d 04 bd b6 83 9c bc 9e 77 fc 3c
       0.14637034 -0.032284815 -0.019105773 0.030818757
000170 b4 c5 96 bb 3d 41 05 3d fb b6 22 3a 7d 1e 73 bd
       -0.004601205 0.03253292 0.0006207076 -0.059355248
000180 e9 e9 52 3d 4c 8f c9 bc 29 ee a5 3d 0d 87 8a bd
       0.051492605 -0.024604462 0.08102066 -0.0676404
000190 b6 8c 5e bd f2 fe 7d 3d 39 79 8e ba bd a5 4e 3d
       -0.05433341 0.062010713 -0.0010869867 0.05045103
0001a0 67 88 f5 3b 56 a4 08 be 0f 97 87 3c 7a 39 cc bc
       0.007493067 -0.13343939 0.016551523 -0.02492975
0001b0 30 eb 85 bc 9a 11 25 bd d9 e8 9f 3c ae 8a 9b 3d
       -0.016347498 -0.04029999 0.01952021 0.075948104
0001c0 f8 b5 35 3c fa 29 53 bd 4d 17 a9 bd 01 2a ee bb
       0.011090748 -0.051553704 -0.082563974 -0.007268191
0001d0 bc 27 84 bd a4 30 e0 3c 5d bf 41 bd 0b ac aa 3c
       -0.06452891 0.027366944 -0.04730164 0.02083399
0001e0 6d 9c d5 3c fd d9 93 3d ea 37 2f 3d 33 f7 99 3d
       0.026075566 0.07219312 0.042777933 0.07517853
0001f0 05 28 5d bd cb 79 88 bc f3 87 86 bd 4d 0b 3b bd
       -0.053993244 -0.016659638 -0.06568899 -0.045665074
000200 13 85 ac 3d c8 be 13 3c f6 85 a8 bd c4 78 09 3d
       0.084238194 0.009017654 -0.08228676 0.033562437
000210 71 c7 6d 3c 25 d7 98 3b ff 41 8a 3d 78 e2 31 3d
       0.014512883 0.004664319 0.06750869 0.043428868
000220 5b 25 9a bc e2 88 c6 bd 88 72 3e bd 7b ec b8 bd
       -0.01881664 -0.09694077 -0.046495944 -0.0902948
000230 09 66 40 bb 73 3d 82 3a 28 13 c0 3d 83 c3 9e 3c
       -0.0029357693 0.0009936526 0.09378654 0.019380337
000240 85 d9 7c bd e1 47 2c be 0c 58 2e bd af 63 09 be
       -0.06173088 -0.16824295 -0.042564437 -0.13416933
000250 6f d3 8f bd 76 60 85 bd 48 52 bb 3c c9 60 19 bd
       -0.0702275 -0.06512539 0.022866383 -0.037445817
000260 90 e3 5e 3d b5 86 18 3c 50 14 2d bd 31 e8 30 3c
       0.05441624 0.00930946 -0.0422557 0.010797546
000270 04 39 9b bd 1c 2b 4d 3d 80 8c 99 3d 07 d5 78 bc
       -0.07579234 0.05008994 0.074975014 -0.015187508
000280 e5 3e 9c bc 6e 13 78 3c cc 6b 61 3d 9a 1a 03 bd
       -0.01907296 0.015141351 0.055034444 -0.03200779
000290 b2 d0 4a 3d cd b0 92 bd 91 c7 89 3c 88 d3 e1 3c
       0.049515434 -0.07162628 0.016818793 0.027566686
0002a0 61 fa ba 3d 05 ee ff 3d a5 61 2c bd c3 2e 24 bc
       0.09129787 0.124965705 -0.04208531 -0.0100209145
0002b0 17 24 db bb 42 7c 97 3d da 87 c6 3c 56 bb 13 3d
       -0.006687652 0.07396747 0.024234701 0.03606733
0002c0 1f 43 59 3d a9 a2 38 3d 63 56 74 bd 52 aa 16 3d
       0.053042527 0.045077 -0.059652697 0.036783524
0002d0 3d 5c e7 bd 91 bc 37 3d 24 a7 ab 3b de 71 6b bd
       -0.1129689 0.044857565 0.0052384306 -0.05748164
0002e0 34 49 6d ba 2a 75 8e 3c 7d 4d 08 bd 0b d6 63 3c
       -0.00090517406 0.017389853 -0.033277024 0.013906012
0002f0 f4 7e b0 bc bc fd 80 3d 91 b4 07 be a4 0e fa bd
       -0.021544911 0.06298396 -0.13252474 -0.12209824
000300 d1 9f af bd 12 f2 a2 bd 93 3a 05 3d 36 66 06 be
       -0.085754044 -0.079563275 0.032526564 -0.13124928
000310 bd fb d3 bd d4 d8 96 bc a3 3d a2 bd 85 7a e1 39
       -0.1035075 -0.018413939 -0.079219125 0.00043006628
000320 ec 44 8f bd 46 fb 2f bd a1 fe d5 bb 3a 4c c4 bc
       -0.06995568 -0.042964242 -0.0065305983 -0.023962129
000330 f2 a1 62 3d 17 08 8b bc 63 2d 9a bc f6 97 11 bd
       0.055330224 -0.016971631 -0.01882047 -0.035545312
000340 f1 e6 c4 bc 46 4b 12 bd 6e 0b 83 3d 14 97 90 bd
       -0.024035903 -0.035716318 0.063986644 -0.07060066
000350 2e 2d 35 3d 8c df a3 bc 9c 7c 06 3d 16 5e 40 bc
       0.04423254 -0.020004056 0.03283368 -0.011741182
000360 6a a6 7d bd c5 55 85 3d 80 b1 65 bd ce fd 03 bc
       -0.061926283 0.065105 -0.05607748 -0.008056117
000370 72 50 e9 bc 29 62 b8 bd 68 81 0a 3d 2c fd 1b bd
       -0.028480742 -0.090030976 0.033814818 -0.03808324
000380 82 f9 3e 3d 9f e2 f7 bc ea af 43 3d 0c ab ba 3d
       0.046624668 -0.030259429 0.047775187 0.09114656
000390 0a 24 0b 3d 4e 02 51 3d 2d 1a 33 bd df bd a2 3d
       0.033969916 0.05102759 -0.043726135 0.07946371
0003a0 7b c4 63 bc 53 9f 17 3e f9 22 71 3d 11 23 85 bd
       -0.013901825 0.14806871 0.058871243 -0.06500829
0003b0 62 b3 ce bd 82 5b a0 3d e0 74 6b bd 96 45 17 bd
       -0.10092808 0.07829954 -0.057484508 -0.036931597
0003c0 60 c6 98 bb 04 cf e8 bd 3b b0 a4 bd 1d 8a 88 bd
       -0.00466232 -0.1136761 -0.08041426 -0.06666968
0003d0 4f 08 18 3c f6 61 24 bd 37 d5 b1 bd d5 1a 8b bd
       0.009279325 -0.040132485 -0.08683246 -0.06792227
0003e0 c6 3f b0 bd 7f b1 2e be 68 fe 88 3d 70 a9 f1 bd
       -0.08605914 -0.17059897 0.06689149 -0.11799896
0003f0 d0 90 17 3c a1 d0 e1 3c d4 e7 04 be 20 e3 cc bd
       0.009250835 0.027565302 -0.1297906 -0.10004258

fc2.bias f4 [84]
000000 7d 11 ed bc 52 bb 07 3e 32 b6 7a 3d 67 9c 3b 3d
       -0.028939003 0.13255051 0.06120891 0.045803454
000010 ad 91 86 3d 4a 13 4e 3c 0b 7f 1b bc 90 04 da 3d
       0.06570754 0.012577841 -0.009490739 0.106454015
000020 68 bf d1 3d e0 5f 07 3d 60 44 aa 3d 69 ad d3 3d
       0.10241586 0.033050418 0.08313823 0.1033581
000030 f8 c6 d0 3d dc 37 e7 3d 1c 52 c7 3b 8a 77 17 3d
       0.101942 0.11289951 0.0060827862 0.036979236
000040 d3 bd da 3c e6 ad 2f 3e 3f 50 28 3e 3a c6 72 3d
       0.026701843 0.1715618 0.16436861 0.059271075
000050 b9 29 da 3d f0 64 2b 3e 55 98 5d 3d 0a 51 bb 3d
       0.10652489 0.16737723 0.054100353 0.09146316
000060 27 36 96 3c 32 04 4c bc 91 a0 2c 3d 00 94 19 3e
       0.018336369 -0.012452172 0.042145316 0.14997864
000070 6e ea 7d 3d 3a 6b ae 3c 10 e6 9f 3c 3a 53 1d 3d
       0.061991148 0.021291364 0.019518882 0.03840945
000080 a4 9f 2f 3c a5 d0 d2 3c 79 a6 28 3e 37 53 a3 3d
       0.010719214 0.025734255 0.16469754 0.07974856
000090 eb 1b f8 3d 19 fb 98 3d 91 db db 3c 91 83 4a 3e
       0.121147 0.07469768 0.026838096 0.19776751
0000a0 3c 54 ff 3d 61 6d 8f 3c 42 5b 01 3d 6c 1d 1d 3d
       0.12467238 0.01750821 0.03158117 0.038358137
0000b0 61 fa 64 3d 68 f4 cd 3d 20 b9 16 3d e6 bc 1c 3e
       0.055902842 0.100563824 0.036797643 0.15306434
0000c0 5e e9 97 3d ba dc b6 3c 16 d7 8a 3d f8 2c ed bc
       0.07417558 0.022322048 0.06779306 -0.028952107
0000d0 8b 81 12 3c 72 36 7c 3d 77 9f fa 3d 26 a6 9a 3d
       0.008942018 0.06157536 0.12237447 0.075512215
0000e0 98 de 0c 3e f4 13 c2 3d 8f 41 0b 3e 11 63 10 3e
       0.13756788 0.09476462 0.13599227 0.14100291
0000f0 8b 09 57 bd d5 d7 98 3d c5 ec c9 3c c8 3a 12 3e
       -0.052499335 0.07463042 0.024649033 0.14280236
000100 d6 f6 9b 3d c0 17 0e 3e 68 ca fe 3d 89 3b 01 3e
       0.076154396 0.13876247 0.1244095 0.12620367
000110 ba 1a 74 3d ee c2 13 bd f8 af 15 bb e9 89 ef 3d
       0.0595958 -0.03607457 -0.0022840481 0.11696226
000120 91 b6 1d 3e 1e 77 96 3d 20 8a 2b 3d c8 0e 00 3e
       0.15401675 0.073469386 0.041879773 0.12505639
000130 92 25 f3 3d ca 15 eb 3c 38 d0 59 3d 6f 58 eb 3d
       0.118724 0.028696913 0.05317709 0.11491477
000140 ce 5c c6 3c c1 55 77 3d 15 c0 59 bb e1 85 06 3e
       0.024214175 0.060384516 -0.0033226062 0.13137008

fc3.weight f4 [10, 84]
000000 9d d0 c7 3d c4 d2 44 3d 6c 97 c0 bd 0a d8 8a 3d
       0.09756587 0.048052564 -0.094038814 0.067794874
000010 ba 31 b7 ba e0 20 c0 3d 70 6f 6f 3d 55 dd 9c 3d
       -0.0013976612 0.093812704 0.058455884 0.07659403
000020 5c 00 36 bd b8 36 ff bc 56 41 9c 3d 5e c7 25 be
       -0.044433936 -0.031154022 0.07629649 -0.16189334
000030 a5 d9 01 3e 74 b7 89 3d 41 ba 9a 3d 98 27 6f 3d
       0.12680681 0.06724444 0.07555056 0.05838737
000040 5a 59 cb bc c7 c6 31 be 15 c3 1d be 92 2e 32 3d
       -0.02482288 -0.17360984 -0.15406449 0.043501444
000050 01 49 f9 bc ad 0b 53 bd 97 87 b0 3c 10 9c b2 3d
       -0.030430319 -0.051524807 0.02154903 0.08721173
000060 06 34 04 be de bf a1 3d 94 55 ac 3d 12 ad 2c be
       -0.1291047 0.07897924 0.0841476 -0.16862896
000070 9f 51 01 be d1 86 48 3d e3 5e a3 bc 03 e8 e2 ba
       -0.12628792 0.048956696 -0.019942706 -0.0017311577
000080 e2 e5 a3 3d a9 ea 0d be 4a ec f2 bd 4a 85 b0 bd
       0.08002831 -0.13859047 -0.11861475 -0.08619173
000090 f1 31 a8 bb 56 17 f1 bc cf 22 fb 3c 25 40 1d be
       -0.0051329066 -0.029430073 0.030656246 -0.153565
0000a0 eb 4b 9e bd 9b f8 0f bd 44 fc b9 3d b2 78 07 3d
       -0.07729324 -0.035149198 0.09081319 0.03307409
0000b0 50 08 59 3d d9 94 88 3d 51 b1 3f bd c7 6d b2 3d
       0.052986443 0.066690154 -0.04679996 0.087123446
0000c0 bd ea d7 bd ec ae ac 3d 2b b7 38 3d 96 6a d3 3d
       -0.1054282 0.08431801 0.045096558 0.10323064
0000d0 72 de 50 3d 74 ca 72 3d c0 62 db bd a0 9c 70 bd
       0.05099339 0.059275106 -0.107121944 -0.05874312
0000e0 11 26 a3 3d 30 b1 d1 3d a9 d4 a9 bd 93 d2 c6 3d
       0.07966245 0.10238874 -0.08292515 0.097081326
0000f0 d6 f9 a1 3d b4 39 1e be 6a bb d6 bd 54 38 2c 3d
       0.079089805 -0.154517 -0.10484965 0.042045906
000100 ae 58 59 bd 2c ad 5b 3d 53 38 19 be 50 6b 82 bd
       -0.053063087 0.053631946 -0.14962892 -0.063681245
000110 18 f1 57 bd 95 09 28 bc ed 0e 8c 3d 47 fc a7 3d
       -0.05272016 -0.010256191 0.06838784 0.08202415
000120 20 4c 18 be 3a 58 e5 bd f6 43 08 be 14 dc 13 be
       -0.1487279 -0.111984685 -0.13307175 -0.14439422
000130 a3 89 ac 3d be 26 eb bc 92 21 94 3d 35 f5 16 be
       0.084246896 -0.028704997 0.072329655 -0.14741977
000140 a9 b2 d8 bc 55 df c3 3d 29 0f 38 be 66 2e 75 bc
       -0.02645238 0.095640816 -0.17974533 -0.0149646755
000150 ed e1 3e be c9 6d b3 bc 3e 77 00 bd 67 81 db 3d
       -0.18640871 -0.021902936 -0.03136372 0.10718041
000160 0d e2 da bc 89 64 1d bd fc b1 0b be 0f 3e b5 3d
       -0.026719118 -0.038425956 -0.13642114 0.08849727
000170 8a cf c8 3d c6 a5 5e be 3c 51 a1 bd 4f a8 20 3d
       0.0980521 -0.21742925 -0.07876822 0.03922301
000180 87 4f ce 3d ab 44 83 bb 35 dd 96 3d c7 af 97 bd
       0.100737624 -0.0040059886 0.07366411 -0.07406574
000190 bd f2 ed bc b5 40 be bd 41 69 75 3d e7 09 83 3d
       -0.02904641 -0.09289686 0.05991483 0.06398373
0001a0 9d df 47 be 75 77 bf 3c bb a2 18 3d de 8b fd bc
       -0.19518895 0.023372391 0.037264567 -0.030950483
0001b0 7b 67 fd 3d af 17 b7 3c 35 c2 99 3d ed 08 7b bd
       0.12373253 0.02235016 0.07507745 -0.06128781
0001c0 e0 4f b9 3d 32 87 d4 3d 0f a7 83 be 7e a6 af 3d
       0.09048438 0.10377349 -0.25713393 0.08576678
0001d0 0b a5 4a bd 32 57 14 be 8c a2 8c 3d 82 bd eb bd
       -0.049473803 -0.14486387 0.06866941 -0.11510755
0001e0 81 25 a8 bd 4a 47 00 3e 82 54 28 3d 69 11 15 be
       -0.08210278 0.12527195 0.041096218 -0.14557423
0001f0 90 ab 66 3d d5 a9 5b bd f8 de 64 3d e8 d5 03 3e
       0.05631596 -0.05362876 0.055876702 0.12874568
000200 60 9f b9 3c d2 12 79 3d 18 5a c7 3d ca ba 6d be
       0.022659004 0.060808964 0.09733981 -0.23215786
000210 89 1d 99 bd 3c 66 ab 3d 67 75 f9 3d c4 93 d7 3d
       -0.074763365 0.08369109 0.12180596 0.10526231
000220 15 d0 50 be 68 7b 81 be 47 5a f1 bb 46 dc 79 3d
       -0.20391877 -0.25289464 -0.007365498 0.061001085
000230 55 68 61 be e8 e8 55 be 47 78 69 be c0 40 ad 3d
       -0.22012456 -0.20889628 -0.22799788 0.08459616
000240 93 f3 12 bd e5 2d 06 be 78 21 9a 3d 03 6c 32 3d
       -0.03587682 -0.13103445 0.07525915 0.04356004
000250 61 f5 db 3d be 68 41 be 93 7b 0a be c3 d9 d6 3d
       0.10740162 -0.18887612 -0.13523702 0.104907535
000260 9b 2c 69 3d 4f bb 0c bd 36 8c 46 be 15 3c 23 be
       0.056927305 -0.03435832 -0.19389424 -0.15940888
000270 48 40 ee bd 2f 7b f8 3d c0 8a 9f 3c 33 fd e1 bd
       -0.116333544 0.121328704 0.01947534 -0.11034622
000280 da 3e 92 3d 8e 0a 56 be e1 fc bd 3d 9b f5 2e be
       0.07140894 -0.20902464 0.092767484 -0.17085879
000290 92 4b e0 3d ac 05 16 bc 52 4d b3 3d 13 25 48 be
       0.10951914 -0.009156626 0.08754982 -0.19545393
0002a0 3b 94 b5 3c 10 4f 33 bd 4e 85 1b bb aa f4 61 bd
       0.022165408 -0.04377657 -0.0023730579 -0.05516497
0002b0 a8 2a 09 bd 2f 39 2c 3d e5 4b 4e 3c 9a d8 d0 3d
       -0.033487946 0.042046722 0.012591337 0.101975635
0002c0 de 2c 78 bd 69 4b ab bc 03 76 30 3c 97 f7 33 bd
       -0.060589664 -0.020909982 0.010770324 -0.043937292
0002d0 fb 03 44 bc 81 af 10 3e ce 28 b0 bc 72 97 57 bd
       -0.01196384 0.1412945 -0.021503832 -0.052634664
0002e0 cb 00 72 3d d1 d1 7a 3d aa 1a f8 bb d1 3a d8 bd
       0.059082787 0.061235253 -0.007571538 -0.10558093
0002f0 90 3c a1 bb 70 4d d4 bd 9c 59 8c 3d cc 9e 9c 3a
       -0.0049205497 -0.103663325 0.06853029 0.0011949181
000300 e7 af ac bd 91 f6 b6 bd 95 da e1 bc e9 61 f2 bb
       -0.08431988 -0.089337476 -0.027570048 -0.0073969257
000310 24 4e 64 bd 06 b6 3e bd 19 bc 48 3d c2 96 90 bd
       -0.055738583 -0.04656031 0.04900751 -0.07060005
000320 ef a5 69 3d a6 73 be 3c ae 1f 85 bd 41 07 95 3d
       0.057043012 0.023248505 -0.06500183 0.07276774
000330 86 6a d3 3d e6 23 97 bd 07 8b d2 bd c5 53 90 3b
       0.10323052 -0.07379894 -0.102804236 0.0044045174
000340 67 5d 71 3d 28 59 9f bd 9b 04 2c 3d 81 ea 1e bd
       0.058926966 -0.07780677 0.04199658 -0.03879786
000350 32 83 22 bd 3d 1d 2e bd 88 8a 21 3c bc fe 62 3d
       -0.0396759 -0.042508353 0.009859689 0.055418715
000360 6e c8 80 ba 63 ec 5e bd ee 93 99 bd c2 9b 26 3d
       -0.0009825358 -0.054424655 -0.074989185 0.040675886
000370 d6 cf 70 3d 1c e5 8c 3d ed 94 9b bd 2e b6 11 3c
       0.058791958 0.06879637 -0.07596765 0.008893533
000380 f9 4d a9 3d dc 0e e8 3d a9 f8 f0 3c e6 45 bf bc
       0.08266825 0.11330959 0.029415445 -0.02334876
000390 6d 03 95 3d 2f 96 92 3d 21 d2 a9 bd a3 d5 27 3c
       0.07276044 0.071575515 -0.08292032 0.010243806
0003a0 d7 2c c1 bd 11 6d 88 3d 14 55 33 bd 96 47 77 bd
       -0.09432381 0.06661428 -0.04378231 -0.060371004
0003b0 07 09 8a bd f6 a4 37 3d f4 81 b7 3d 8b 66 cc 3d
       -0.06740003 0.044835053 0.089603335 0.09980496
0003c0 10 7a 93 3d 9d be c8 bd 80 92 80 3d 3a ec db bd
       0.07201016 -0.098019816 0.06277943 -0.10738416
0003d0 a2 ed ae 3c 2d 4a 22 3c e5 3a 07 be a8 86 20 3d
       0.021353547 0.00990538 -0.1320606 0.03919092
0003e0 f5 bb 03 be 01 8d df 3d ef c0 1c bd 08 10 87 3d
       -0.12864669 0.10915566 -0.038269933 0.065948546
0003f0 24 d9 80 bc 5e 53 b7 bd 48 74 e6 bb 34 26 ac bd
       -0.01572854 -0.08951448 -0.007032905 -0.08405724

fc3.bias f4 [10]
000000 d9 3c 8e bd 0e b0 e2 bd 6c df 5f 3d eb 8f 00 3e
       -0.069451995 -0.11068736 0.05465643 0.125549
000010 c7 83 a7 3d 6f db d6 bd 10 86 9b 3d 4d 3f 43 3d
       0.081794314 -0.104910724 0.0759393 0.04766779
000020 fa 66 27 bd d7 a8 2d 3e
       -0.04086969 0.16958939
